…
ttention： decoder 对输入做masked self-attention，产生一个q。 将q与encoder这边产生的k1、k2、k3计算attention的分数 再把得到的结果的weighted sum相加得到v v当做接下来decoder的fully connected network的input 参考 Vaswani, Ashish, et al. “Attention is all you need.” Advances in neural information processing systems 30 (2017). HUNG-YI LEE (李宏毅) “MACHINE LEARNING 2021 SPRING” ","date":"2021-10-10","objectID":"/posts/%E7%A7%91%E7%A0%94/transformer%E6%A6%82%E8%BF%B0/:3:0","tags":["Transfomer"],"title":"Transformer概述","uri":"/posts/%E7%A7%91%E7%A0%94/transformer%E6%A6%82%E8%BF%B0/"},{"categories":["科研"],"content":"LeNet LeNet( (conv): Sequential( (0): Conv2d(1, 6, kernel_size=(5, 5), stride=(1, 1)) (1): Sigmoid() (2): MaxPool2d(kernel_size=2, stride=2, padding=0, dilation=1, ceil_mode=False) (3): Conv2d(6, 16, kernel_size=(5, 5), stride=(1, 1)) (4): Sigmoid() (5): MaxPool2d(kernel_size=2, stride=2, padding=0, dilation=1, ceil_mode=False) ) (fc): Sequential( (0): Linear(in_features=256, out_features=120, bias=True) (1): Sigmoid() (2): Linear(in_features=120, out_features=84, bias=True) (3): Sigmoid() (4): Linear(in_features=84, out_features=10, bias=True) ) ) ","date":"2021-09-24","objectID":"/posts/%E7%A7%91%E7%A0%94/%E7%BB%8F%E5%85%B8cnn%E6%A8%A1%E5%9E%8B%E5%AF%B9%E6%AF%94/:1:0","tags":["CNN"],"title":"经典CNN模型对比","uri":"/posts/%E7%A7%91%E7%A0%94/%E7%BB%8F%E5%85%B8cnn%E6%A8%A1%E5%9E%8B%E5%AF%B9%E6%AF%94/"},{"categories":["科研"],"content":"AlexNet AlexNet( (conv): Sequential( (0): Conv2d(1, 96, kernel_size=(11, 11), stride=(4, 4)) (1): ReLU() (2): MaxPool2d(kernel_size=3, stride=2, padding=0, dilation=1, ceil_mode=False) (3): Conv2d(96, 256, kernel_size=(5, 5), stride=(1, 1), padding=(2, 2)) (4): ReLU() (5): MaxPool2d(kernel_size=3, stride=2, padding=0, dilation=1, ceil_mode=False) (6): Conv2d(256, 384, kernel_size=(3, 3), stride=(1, 1), padding=(1, 1)) (7): ReLU() (8): Conv2d(384, 384, kernel_size=(3, 3), stride=(1, 1), padding=(1, 1)) (9): ReLU() (10): Conv2d(384, 256, kernel_size=(3, 3), stride=(1, 1), padding=(1, 1)) (11): ReLU() (12): MaxPool2d(kernel_size=3, stride=2, padding=0, dilation=1, ceil_mode=False) ) (fc): Sequential( (0): Linear(in_features=6400, out_features=4096, bias=True) (1): ReLU() (2): Dropout(p=0.5) (3): Linear(in_features=4096, out_features=4096, bias=True) (4): ReLU() (5): Dropout(p=0.5) (6): Linear(in_features=4096, out_features=10, bias=True) ) ) AlexNet与LeNet的区别： 第一，与相对较小的LeNet相比，AlexNet包含8层变换，其中有5层卷积和2层全连接隐藏层，以及1个全连接输出层。下面我们来详细描述这些层的设计。 AlexNet第一层中的卷积窗口形状是11*11。因为ImageNet中绝大多数图像的高和宽均比MNIST图像的高和宽大10倍以上，ImageNet图像的物体占用更多的像素，所以需要更大的卷积窗口来捕获物体。第二层中的卷积窗口形状减小到5×5，之后全采用3×3。此外，第一、第二和第五个卷积层之后都使用了窗口形状为3×3、步幅为2的最大池化层。而且，AlexNet使用的卷积通道数也大于LeNet中的卷积通道数数十倍。 紧接着最后一个卷积层的是两个输出个数为4096的全连接层。这两个巨大的全连接层带来将近1 G
…
